…
  return F.linear(input, self.weight, self.bias)</code></pre>
</div>
<div class="cell-output cell-output-display" data-execution_count="20">
<pre><code>===================================================================================================================
Layer (type:depth-idx)                   Input Shape               Output Shape              Param #
===================================================================================================================
HittersModel                             [175, 19]                 [175]                     --
├─Flatten: 1-1                           [175, 19]                 [175, 19]                 --
├─Sequential: 1-2                        [175, 19]                 [175, 1]                  --
│    └─Linear: 2-1                       [175, 19]                 [175, 50]                 1,000
│    └─ReLU: 2-2                         [175, 50]                 [175, 50]                 --
│    └─Dropout: 2-3                      [175, 50]                 [175, 50]                 --
│    └─Linear: 2-4                       [175, 50]                 [175, 1]                  51
===================================================================================================================
Total params: 1,051
Trainable params: 1,051
Non-trainable params: 0
Total mult-adds (M): 0.18
===================================================================================================================
Input size (MB): 0.01
Forward/backward pass size (MB): 0.07
Params size (MB): 0.00
…
<span id="cb58-5">                   <span class="st" style="color: #20794D;
background-color: null;
font-style: inherit;">'num_params'</span>])</span></code></pre></div>
<div class="cell-output cell-output-display" data-execution_count="40">
<pre><code>===================================================================================================================
Layer (type:depth-idx)                   Input Shape               Output Shape              Param #
===================================================================================================================
MNISTModel                               [256, 1, 28, 28]          [256, 10]                 --
├─Sequential: 1-1                        [256, 1, 28, 28]          [256, 10]                 --
│    └─Sequential: 2-1                   [256, 1, 28, 28]          [256, 256]                --
│    │    └─Flatten: 3-1                 [256, 1, 28, 28]          [256, 784]                --
│    │    └─Linear: 3-2                  [256, 784]                [256, 256]                200,960
│    │    └─ReLU: 3-3                    [256, 256]                [256, 256]                --
│    │    └─Dropout: 3-4                 [256, 256]                [256, 256]                --
│    └─Sequential: 2-2                   [256, 256]                [256, 128]                --
│    │    └─Linear: 3-5                  [256, 256]                [256, 128]                32,896
│    │    └─ReLU: 3-6                    [256, 128]                [256, 128]                --
│    │    └─Dropout: 3-7                 [256, 128]                [256, 128]                --
│    └─Linear: 2-3                       [256, 128]                [256, 10]                 1,290
===================================================================================================================
Total params: 235,146
Trainable params: 235,146
Non-trainable params: 0
Total mult-adds (M): 60.20
===================================================================================================================
Input size (MB): 0.80
Forward/backward pass size (MB): 0.81
Params size (MB): 0.94
…
<span id="cb85-6">                   <span class="st" style="color: #20794D;
background-color: null;
font-style: inherit;">'num_params'</span>])</span></code></pre></div>
<div class="cell-output cell-output-display" data-execution_count="56">
<pre><code>===================================================================================================================
Layer (type:depth-idx)                   Input Shape               Output Shape              Param #
===================================================================================================================
CIFARModel                               [128, 3, 32, 32]          [128, 100]                --
├─Sequential: 1-1                        [128, 3, 32, 32]          [128, 256, 2, 2]          --
│    └─BuildingBlock: 2-1                [128, 3, 32, 32]          [128, 32, 16, 16]         --
│    │    └─Conv2d: 3-1                  [128, 3, 32, 32]          [128, 32, 32, 32]         896
│    │    └─ReLU: 3-2                    [128, 32, 32, 32]         [128, 32, 32, 32]         --
│    │    └─MaxPool2d: 3-3               [128, 32, 32, 32]         [128, 32, 16, 16]         --
│    └─BuildingBlock: 2-2                [128, 32, 16, 16]         [128, 64, 8, 8]           --
│    │    └─Conv2d: 3-4                  [128, 32, 16, 16]         [128, 64, 16, 16]         18,496
│    │    └─ReLU: 3-5                    [128, 64, 16, 16]         [128, 64, 16, 16]         --
│    │    └─MaxPool2d: 3-6               [128, 64, 16, 16]         [128, 64, 8, 8]           --
│    └─BuildingBlock: 2-3                [128, 64, 8, 8]           [128, 128, 4, 4]          --
│    │    └─Conv2d: 3-7                  [128, 64, 8, 8]           [128, 128, 8, 8]          73,856
│    │    └─ReLU: 3-8                    [128, 128, 8, 8]          [128, 128, 8, 8]          --
│    │    └─MaxPool2d: 3-9               [128, 128, 8, 8]          [128, 128, 4, 4]          --
│    └─BuildingBlock: 2-4                [128, 128, 4, 4]          [128, 256, 2, 2]          --
│    │    └─Conv2d: 3-10                 [128, 128, 4, 4]          [128, 256, 4, 4]          295,168
│    │    └─ReLU: 3-11                   [128, 256, 4, 4]          [128, 256, 4, 4]          --
│    │    └─MaxPool2d: 3-12              [128, 256, 4, 4]          [128, 256, 2, 2]          --
├─Sequential: 1-2                        [128, 1024]               [128, 100]                --
│    └─Dropout: 2-5                      [128, 1024]               [128, 1024]               --
│    └─Linear: 2-6                       [128, 1024]               [128, 512]                524,800
│    └─ReLU: 2-7                         [128, 512]                [128, 512]                --
│    └─Linear: 2-8                       [128, 512]                [128, 100]                51,300
===================================================================================================================
Total params: 964,516
Trainable params: 964,516
Non-trainable params: 0
Total mult-adds (G): 2.01
===================================================================================================================
Input size (MB): 1.57
Forward/backward pass size (MB): 63.54
Params size (MB): 3.86
…
font-style: inherit;">'num_params'</span>])</span></code></pre></div>
<div class="cell-output cell-output-display" data-execution_count="74">
<pre><code>===================================================================================================================
Layer (type:depth-idx)                   Input Shape               Output Shape              Param #
===================================================================================================================
IMDBModel                                [25000, 10003]            [25000]                   --
├─Linear: 1-1                            [25000, 10003]            [25000, 16]               160,064
├─ReLU: 1-2                              [25000, 16]               [25000, 16]               --
├─Linear: 1-3                            [25000, 16]               [25000, 16]               272
├─ReLU: 1-4                              [25000, 16]               [25000, 16]               --
├─Linear: 1-5                            [25000, 16]               [25000, 1]                17
===================================================================================================================
Total params: 160,353
Trainable params: 160,353
Non-trainable params: 0
Total mult-adds (G): 4.01
===================================================================================================================
Input size (MB): 1000.30
Forward/backward pass size (MB): 6.60
Params size (MB): 0.64
…
