…
rnally at ../aten/src/ATen/Context.cpp:185.)\n  return F.linear(input, self.weight, self.bias)\n\n\n===================================================================================================================\nLayer (type:depth-idx)                   Input Shape               Output Shape              Param #\n===================================================================================================================\nHittersModel                             [175, 19]                 [175]                     --\n├─Flatten: 1-1                           [175, 19]                 [175, 19]                 --\n├─Sequential: 1-2                        [175, 19]                 [175, 1]                  --\n│    └─Linear: 2-1                       [175, 19]                 [175, 50]                 1,000\n│    └─ReLU: 2-2                         [175, 50]                 [175, 50]                 --\n│    └─Dropout: 2-3                      [175, 50]                 [175, 50]                 --\n│    └─Linear: 2-4                       [175, 50]                 [175, 1]                  51\n===================================================================================================================\nTotal params: 1,051\nTrainable params: 1,051\nNon-trainable params: 0\nTotal mult-adds (M): 0.18\n===================================================================================================================\nInput size (MB): 0.01\nForward/backward pass size (MB): 0.07\nPara
…
 through the final batched X_ from above.\n\nsummary(mnist_model,\n        input_data=X_,\n        col_names=['input_size',\n                   'output_size',\n                   'num_params'])\n\n===================================================================================================================\nLayer (type:depth-idx)                   Input Shape               Output Shape              Param #\n===================================================================================================================\nMNISTModel                               [256, 1, 28, 28]          [256, 10]                 --\n├─Sequential: 1-1                        [256, 1, 28, 28]          [256, 10]                 --\n│    └─Sequential: 2-1                   [256, 1, 28, 28]          [256, 256]                --\n│    │    └─Flatten: 3-1                 [256, 1, 28, 28]          [256, 784]                --\n│    │    └─Linear: 3-2                  [256, 784]                [256, 256]                200,960\n│    │    └─ReLU: 3-3                    [256, 256]                [256, 256]                --\n│    │    └─Dropout: 3-4                 [256, 256]                [256, 256]                --\n│    └─Sequential: 2-2                   [256, 256]                [256, 128]                --\n│    │    └─Linear: 3-5                  [256, 256]                [256, 128]                32,896\n│    │    └─ReLU: 3-6                    [256, 128]                [256, 128]                --\n│    │    └─Dropout: 3-7                 [256, 128]                [256, 128]                --\n│    └─Linear: 2-3                       [256, 128]                [256, 10]                 1,290\n===================================================================================================================\nTotal params: 235,146\nTrainable params: 235,146\nNon-trainable params: 0\nTotal mult-adds (M): 60.20\n===================================================================================================================\nInput size (MB): 0.80\nForward/backward pass size (MB): 0.81\
…
 X_ earlier.)\n\ncifar_model = CIFARModel()\nsummary(cifar_model,\n        input_data=X_,\n        col_names=['input_size',\n                   'output_size',\n                   'num_params'])\n\n===================================================================================================================\nLayer (type:depth-idx)                   Input Shape               Output Shape              Param #\n===================================================================================================================\nCIFARModel                               [128, 3, 32, 32]          [128, 100]                --\n├─Sequential: 1-1                        [128, 3, 32, 32]          [128, 256, 2, 2]          --\n│    └─BuildingBlock: 2-1                [128, 3, 32, 32]          [128, 32, 16, 16]         --\n│    │    └─Conv2d: 3-1                  [128, 3, 32, 32]          [128, 32, 32, 32]         896\n│    │    └─ReLU: 3-2                    [128, 32, 32, 32]         [128, 32, 32, 32]         --\n│    │    └─MaxPool2d: 3-3               [128, 32, 32, 32]         [128, 32, 16, 16]         --\n│    └─BuildingBlock: 2-2                [128, 32, 16, 16]         [128, 64, 8, 8]           --\n│    │    └─Conv2d: 3-4                  [128, 32, 16, 16]         [128, 64, 16, 16]         18,496\n│    │    └─ReLU: 3-5                    [128, 64, 16, 16]         [128, 64, 16, 16]         --\n│    │    └─MaxPool2d: 3-6               [128, 64, 16, 16]         [128, 64, 8, 8]           --\n│    └─BuildingBlock: 2-3                [128, 64, 8, 8]           [128, 128, 4, 4]          --\n│    │    └─Conv2d: 3-7                  [128, 64, 8, 8]           [128, 128, 8, 8]          73,856\n│    │    └─ReLU: 3-8                    [128, 128, 8, 8]          [128, 128, 8, 8]          --\n│    │    └─MaxPool2d: 3-9               [128, 128, 8, 8]          [128, 128, 4, 4]          --\n│    └─BuildingBlock: 2-4                [128, 128, 4, 4]          [128, 256, 2, 2]          --\n│    │    └─Conv2d: 3-10                 [128, 128, 4, 4]          [128, 256, 4, 4]          295,168\n│    │    └─ReLU: 3-11                   [128, 256, 4, 4]          [128, 256, 4, 4]          --\n│    │    └─MaxPool2d: 3-12              [128, 256, 4, 4]          [128, 256, 2, 2]          --\n├─Sequential: 1-2                        [128, 1024]               [128, 100]                --\n│    └─Dropout: 2-5                      [128, 1024]               [128, 1024]               --\n│    └─Linear: 2-6                       [128, 1024]               [128, 512]                524,800\n│    └─ReLU: 2-7                         [128, 512]                [128, 512]                --\n│    └─Linear: 2-8                       [128, 512]                [128, 100]                51,300\n===================================================================================================================\nTotal params: 964,516\nTrainable params: 964,516\nNon-trainable params: 0\nTotal mult-adds (G): 2.01\n===================================================================================================================\nInput size (MB): 1.57\nForward/backward pass size (MB): 63.54\
…
  col_names=['input_size',\n                   'output_size',\n                   'num_params'])\n\n===================================================================================================================\nLayer (type:depth-idx)                   Input Shape               Output Shape              Param #\n===================================================================================================================\nIMDBModel                                [25000, 10003]            [25000]                   --\n├─Linear: 1-1                            [25000, 10003]            [25000, 16]               160,064\n├─ReLU: 1-2                              [25000, 16]               [25000, 16]               --\n├─Linear: 1-3                            [25000, 16]               [25000, 16]               272\n├─ReLU: 1-4                              [25000, 16]               [25000, 16]               --\n├─Linear: 1-5                            [25000, 16]               [25000, 1]                17\n===================================================================================================================\nTotal params: 160,353\nTrainable params: 160,353\nNon-trainable params: 0\nTotal mult-adds (G): 4.01\n===================================================================================================================\nInput size (MB): 1000.30\nForward/backward pass size (MB): 6.6
…
